VGG16-Face has 19 layers
_________________________________________________________________
Layer (type)                 Output Shape              Param #
=================================================================
input_1 (InputLayer)         (None, 224, 224, 3)       0
_________________________________________________________________
conv1_1 (Conv2D)             (None, 224, 224, 64)      1792
_________________________________________________________________
conv1_2 (Conv2D)             (None, 224, 224, 64)      36928
_________________________________________________________________
pool1 (MaxPooling2D)         (None, 112, 112, 64)      0
_________________________________________________________________
conv2_1 (Conv2D)             (None, 112, 112, 128)     73856
_________________________________________________________________
conv2_2 (Conv2D)             (None, 112, 112, 128)     147584
_________________________________________________________________
pool2 (MaxPooling2D)         (None, 56, 56, 128)       0
_________________________________________________________________
conv3_1 (Conv2D)             (None, 56, 56, 256)       295168
_________________________________________________________________
conv3_2 (Conv2D)             (None, 56, 56, 256)       590080
_________________________________________________________________
conv3_3 (Conv2D)             (None, 56, 56, 256)       590080
_________________________________________________________________
pool3 (MaxPooling2D)         (None, 28, 28, 256)       0
_________________________________________________________________
conv4_1 (Conv2D)             (None, 28, 28, 512)       1180160
_________________________________________________________________
conv4_2 (Conv2D)             (None, 28, 28, 512)       2359808
_________________________________________________________________
conv4_3 (Conv2D)             (None, 28, 28, 512)       2359808
_________________________________________________________________
pool4 (MaxPooling2D)         (None, 14, 14, 512)       0
_________________________________________________________________
conv5_1 (Conv2D)             (None, 14, 14, 512)       2359808
_________________________________________________________________
conv5_2 (Conv2D)             (None, 14, 14, 512)       2359808
_________________________________________________________________
conv5_3 (Conv2D)             (None, 14, 14, 512)       2359808
_________________________________________________________________
pool5 (MaxPooling2D)         (None, 7, 7, 512)         0
_________________________________________________________________
flatten (Flatten)            (None, 25088)             0
_________________________________________________________________
fc6 (Dense)                  (None, 1024)              25691136
_________________________________________________________________
fc7 (Dense)                  (None, 1024)              1049600
_________________________________________________________________
fc8 (Dense)                  (None, 7)                 7175
=================================================================
Total params: 41,462,599
Trainable params: 26,747,911
Non-trainable params: 14,714,688
_________________________________________________________________
{'layers': [{'class_name': 'InputLayer', 'config': {'dtype': 'float32', 'batch_input_shape': (None, 224, 224, 3), 'name': 'input_1', 'sparse': False}, 'inbound_nodes': [], 'name': 
…
